…
0.8, 0.9]}, 'CosineScheduler': {'total_cycles': 3, 'min_lr_ratio': 0.0001, 'warmup_ratio': 200, 'warmup_lr_ratio': 0.001}}, 'logger_cfg': {'tf_log_loss_period': 5, 'tf_log_record_period': 30, 'log_record_fn': 'visualize_vox_counting_samples', 'log_dir': 'workdirs/cross_view/vox/swin/[2025-02-11::02:00:47]', 'chkp_sv_path': 'workdirs/cross_view/vox/swin/[2025-02-11::02:00:47]/checkpoints', 'chkp_sv_period': 1}}}
[2025-02-11 02:00:58] DistributedDataParallel(
  (module): VOXCounter(
    (image_feature_backbone): SwinTransformer(
      (features): Sequential(
        (0): Sequential(
          (0): Conv2d(3, 96, kernel_size=(4, 4), stride=(4, 4))
          (1): Permute()
          (2): LayerNorm((96,), eps=1e-05, elementwise_affine=True)
        )
        (1): Sequential(
          (0): SwinTransformerBlock(
            (norm1): LayerNorm((96,), eps=1e-05, elementwise_affine=True)
            (attn): ShiftedWindowAttention(
              (qkv): Linear(in_features=96, out_features=288, bias=True)
              (proj): Linear(in_features=96, out_features=96, bias=True)
            )
            (stochastic_depth): StochasticDepth(p=0.0, mode=row)
            (norm2): LayerNorm((96,), eps=1e-05, elementwise_affine=True)
            (mlp): MLP(
              (0): Linear(in_features=96, out_features=384, bias=True)
              (1): GELU(approximate='none')
              (2): Dropout(p=0.0, inplace=False)
              (3): Linear(in_features=384, out_features=96, bias=True)
              (4): Dropout(p=0.0, inplace=False)
            )
          )
          (1): SwinTransformerBlock(
            (norm1): LayerNorm((96,), eps=1e-05, elementwise_affine=True)
            (attn): ShiftedWindowAttention(
              (qkv): Linear(in_features=96, out_features=288, bias=True)
              (proj): Linear(in_features=96, out_features=96, bias=True)
            )
            (stochastic_depth): StochasticDepth(p=0.018181818181818184, mode=row)
            (norm2): LayerNorm((96,), eps=1e-05, elementwise_affine=True)
            (mlp): MLP(
              (0): Linear(in_features=96, out_features=384, bias=True)
              (1): GELU(approximate='none')
              (2): Dropout(p=0.0, inplace=False)
              (3): Linear(in_features=384, out_features=96, bias=True)
              (4): Dropout(p=0.0, inplace=False)
            )
          )
        )
        (2): PatchMerging(
          (reduction): Linear(in_features=384, out_features=192, bias=False)
          (norm): LayerNorm((384,), eps=1e-05, elementwise_affine=True)
        )
        (3): Sequential(
          (0): SwinTransformerBlock(
            (norm1): LayerNorm((192,), eps=1e-05, elementwise_affine=True)
            (attn): ShiftedWindowAttention(
              (qkv): Linear(in_features=192, out_features=576, bias=True)
              (proj): Linear(in_features=192, out_features=192, bias=True)
            )
            (stochastic_depth): StochasticDepth(p=0.03636363636363637, mode=row)
            (norm2): LayerNorm((192,), eps=1e-05, elementwise_affine=True)
            (mlp): MLP(
              (0): Linear(in_features=192, out_features=768, bias=True)
              (1): GELU(approximate='none')
              (2): Dropout(p=0.0, inplace=False)
              (3): Linear(in_features=768, out_features=192, bias=True)
              (4): Dropout(p=0.0, inplace=False)
            )
          )
          (1): SwinTransformerBlock(
            (norm1): LayerNorm((192,), eps=1e-05, elementwise_affine=True)
            (attn): ShiftedWindowAttention(
              (qkv): Linear(in_features=192, out_features=576, bias=True)
              (proj): Linear(in_features=192, out_features=192, bias=True)
            )
            (stochastic_depth): StochasticDepth(p=0.05454545454545456, mode=row)
            (norm2): LayerNorm((192,), eps=1e-05, elementwise_affine=True)
            (mlp): MLP(
              (0): Linear(in_features=192, out_features=768, bias=True)
              (1): GELU(approximate='none')
              (2): Dropout(p=0.0, inplace=False)
              (3): Linear(in_features=768, out_features=192, bias=True)
              (4): Dropout(p=0.0, inplace=False)
            )
          )
        )
        (4): PatchMerging(
          (reduction): Linear(in_features=768, out_features=384, bias=False)
          (norm): LayerNorm((768,), eps=1e-05, elementwise_affine=True)
        )
        (5): Sequential(
          (0): SwinTransformerBlock(
            (norm1): LayerNorm((384,), eps=1e-05, elementwise_affine=True)
            (attn): ShiftedWindowAttention(
              (qkv): Linear(in_features=384, out_features=1152, bias=True)
              (proj): Linear(in_features=384, out_features=384, bias=True)
            )
            (stochastic_depth): StochasticDepth(p=0.07272727272727274, mode=row)
            (norm2): LayerNorm((384,), eps=1e-05, elementwise_affine=True)
            (mlp): MLP(
              (0): Linear(in_features=384, out_features=1536, bias=True)
              (1): GELU(approximate='none')
              (2): Dropout(p=0.0, inplace=False)
              (3): Linear(in_features=1536, out_features=384, bias=True)
              (4): Dropout(p=0.0, inplace=False)
            )
          )
          (1): SwinTransformerBlock(
            (norm1): LayerNorm((384,), eps=1e-05, elementwise_affine=True)
            (attn): ShiftedWindowAttention(
              (qkv): Linear(in_features=384, out_features=1152, bias=True)
              (proj): Linear(in_features=384, out_features=384, bias=True)
            )
            (stochastic_depth): StochasticDepth(p=0.09090909090909091, mode=row)
            (norm2): LayerNorm((384,), eps=1e-05, elementwise_affine=True)
            (mlp): MLP(
              (0): Linear(in_features=384, out_features=1536, bias=True)
              (1): GELU(approximate='none')
              (2): Dropout(p=0.0, inplace=False)
              (3): Linear(in_features=1536, out_features=384, bias=True)
              (4): Dropout(p=0.0, inplace=False)
            )
          )
          (2): SwinTransformerBlock(
            (norm1): LayerNorm((384,), eps=1e-05, elementwise_affine=True)
            (attn): ShiftedWindowAttention(
              (qkv): Linear(in_features=384, out_features=1152, bias=True)
              (proj): Linear(in_features=384, out_features=384, bias=True)
            )
            (stochastic_depth): StochasticDepth(p=0.10909090909090911, mode=row)
            (norm2): LayerNorm((384,), eps=1e-05, elementwise_affine=True)
            (mlp): MLP(
              (0): Linear(in_features=384, out_features=1536, bias=True)
              (1): GELU(approximate='none')
              (2): Dropout(p=0.0, inplace=False)
              (3): Linear(in_features=1536, out_features=384, bias=True)
              (4): Dropout(p=0.0, inplace=False)
            )
          )
          (3): SwinTransformerBlock(
            (norm1): LayerNorm((384,), eps=1e-05, elementwise_affine=True)
            (attn): ShiftedWindowAttention(
              (qkv): Linear(in_features=384, out_features=1152, bias=True)
              (proj): Linear(in_features=384, out_features=384, bias=True)
            )
            (stochastic_depth): StochasticDepth(p=0.1272727272727273, mode=row)
            (norm2): LayerNorm((384,), eps=1e-05, elementwise_affine=True)
            (mlp): MLP(
              (0): Linear(in_features=384, out_features=1536, bias=True)
              (1): GELU(approximate='none')
              (2): Dropout(p=0.0, inplace=False)
              (3): Linear(in_features=1536, out_features=384, bias=True)
              (4): Dropout(p=0.0, inplace=False)
            )
          )
          (4): SwinTransformerBlock(
            (norm1): LayerNorm((384,), eps=1e-05, elementwise_affine=True)
            (attn): ShiftedWindowAttention(
              (qkv): Linear(in_features=384, out_features=1152, bias=True)
              (proj): Linear(in_features=384, out_features=384, bias=True)
            )
            (stochastic_depth): StochasticDepth(p=0.14545454545454548, mode=row)
            (norm2): LayerNorm((384,), eps=1e-05, elementwise_affine=True)
            (mlp): MLP(
              (0): Linear(in_features=384, out_features=1536, bias=True)
              (1): GELU(approximate='none')
              (2): Dropout(p=0.0, inplace=False)
              (3): Linear(in_features=1536, out_features=384, bias=True)
              (4): Dropout(p=0.0, inplace=False)
            )
          )
          (5): SwinTransformerBlock(
            (norm1): LayerNorm((384,), eps=1e-05, elementwise_affine=True)
            (attn): ShiftedWindowAttention(
              (qkv): Linear(in_features=384, out_features=1152, bias=True)
              (proj): Linear(in_features=384, out_features=384, bias=True)
            )
            (stochastic_depth): StochasticDepth(p=0.16363636363636364, mode=row)
            (norm2): LayerNorm((384,), eps=1e-05, elementwise_affine=True)
            (mlp): MLP(
              (0): Linear(in_features=384, out_features=1536, bias=True)
              (1): GELU(approximate='none')
              (2): Dropout(p=0.0, inplace=False)
              (3): Linear(in_features=1536, out_features=384, bias=True)
              (4): Dropout(p=0.0, inplace=False)
            )
          )
        )
        (6): PatchMerging(
          (reduction): Linear(in_features=1536, out_features=768, bias=False)
          (norm): LayerNorm((1536,), eps=1e-05, elementwise_affine=True)
        )
        (7): Sequential(
          (0): SwinTransformerBlock(
            (norm1): LayerNorm((768,), eps=1e-05, elementwise_affine=True)
            (attn): ShiftedWindowAttention(
              (qkv): Linear(in_features=768, out_features=2304, bias=True)
              (proj): Linear(in_features=768, out_features=768, bias=True)
            )
            (stochastic_depth): StochasticDepth(p=0.18181818181818182, mode=row)
            (norm2): LayerNorm((768,), eps=1e-05, elementwise_affine=True)
            (mlp): MLP(
              (0): Linear(in_features=768, out_features=3072, bias=True)
              (1): GELU(approximate='none')
              (2): Dropout(p=0.0, inplace=False)
              (3): Linear(in_features=3072, out_features=768, bias=True)
              (4): Dropout(p=0.0, inplace=False)
            )
          )
          (1): SwinTransformerBlock(
            (norm1): LayerNorm((768,), eps=1e-05, elementwise_affine=True)
            (attn): ShiftedWindowAttention(
              (qkv): Linear(in_features=768, out_features=2304, bias=True)
              (proj): Linear(in_features=768, out_features=768, bias=True)
            )
            (stochastic_depth): StochasticDepth(p=0.2, mode=row)
            (norm2): LayerNorm((768,), eps=1e-05, elementwise_affine=True)
            (mlp): MLP(
              (0): Linear(in_features=768, out_features=3072, bias=True)
              (1): GELU(approximate='none')
              (2): Dropout(p=0.0, inplace=False)
              (3): Linear(in_features=3072, out_features=768, bias=True)
              (4): Dropout(p=0.0, inplace=False)
            )
          )
        )
      )
      (norm): LayerNorm((768,), eps=1e-05, elementwise_affine=True)
      (avgpool): AdaptiveAvgPool2d(output_size=1)
      (head): Linear(in_features=768, out_features=1000, bias=True)
    )
    (image_feature_fusion): SimpleFPN(
      (lateral_convs): ModuleList(
        (0): ConvModule(
          (conv): Conv2d(96, 256, kernel_size=(1, 1), stride=(1, 1))
        )
        (1): ConvModule(
          (conv): Conv2d(192, 256, kernel_size=(1, 1), stride=(1, 1))
        )
        (2): ConvModule(
          (conv): Conv2d(384, 256, kernel_size=(1, 1), stride=(1, 1))
        )
        (3): ConvModule(
          (conv): Conv2d(768, 256, kernel_size=(1, 1), stride=(1, 1))
        )
      )
      (fpn_convs): ModuleList(
        (0-3): 4 x ConvModule(
          (conv): Conv2d(256, 256, kernel_size=(3, 3), stride=(1, 1), padding=(1, 1))
        )
      )
    )
    (image_feature_embed): ImageFeatureEmbedding(
      (bn): SyncBatchNorm(36, eps=1e-05, momentum=0.1, affine=True, track_running_stats=True)
      (mlp): MLP(
        (0): Linear(in_features=36, out_features=256, bias=True)
        (1): SyncBatchNorm(256, eps=1e-05, momentum=0.1, affine=True, track_running_stats=True)
        (2): ReLU(inplace=True)
        (3): Dropout(p=0.0, inplace=True)
        (4): Linear(in_features=256, out_features=256, bias=True)
        (5): SyncBatchNorm(256, eps=1e-05, momentum=0.1, affine=True, track_running_stats=True)
        (6): ReLU(inplace=True)
        (7): Dropout(p=0.0, inplace=True)
        (8): Linear(in_features=256, out_features=256, bias=True)
        (9): SyncBatchNorm(256, eps=1e-05, momentum=0.1, affine=True, track_running_stats=True)
        (10): ReLU(inplace=True)
        (11): Dropout(p=0.0, inplace=True)
        (12): Linear(in_features=256, out_features=1024, bias=True)
        (13): Dropout(p=0.0, inplace=True)
      )
    )
    (image_counter_head): CSRNet(
      (backend): Sequential(
        (0): Conv2d(1024, 512, kernel_size=(3, 3), stride=(1, 1), padding=(2, 2), dilation=(2, 2))
        (1): SyncBatchNorm(512, eps=1e-05, momentum=0.1, affine=True, track_running_stats=True)
        (2): ReLU(inplace=True)
        (3): Conv2d(512, 256, kernel_size=(3, 3), stride=(1, 1), padding=(2, 2), dilation=(2, 2))
        (4): SyncBatchNorm(256, eps=1e-05, momentum=0.1, affine=True, track_running_stats=True)
        (5): ReLU(inplace=True)
        (6): Conv2d(256, 256, kernel_size=(3, 3), stride=(1, 1), padding=(2, 2), dilation=(2, 2))
        (7): SyncBatchNorm(256, eps=1e-05, momentum=0.1, affine=True, track_running_stats=True)
        (8): ReLU(inplace=True)
        (9): Conv2d(256, 128, kernel_size=(3, 3), stride=(1, 1), padding=(2, 2), dilation=(2, 2))
        (10): SyncBatchNorm(128, eps=1e-05, momentum=0.1, affine=True, track_running_stats=True)
        (11): ReLU(inplace=True)
        (12): Conv2d(128, 128, kernel_size=(3, 3), stride=(1, 1), padding=(2, 2), dilation=(2, 2))
        (13): SyncBatchNorm(128, eps=1e-05, momentum=0.1, affine=True, track_running_stats=True)
        (14): ReLU(inplace=True)
        (15): Conv2d(128, 64, kernel_size=(3, 3), stride=(1, 1), padding=(2, 2), dilation=(2, 2))
        (16): SyncBatchNorm(64, eps=1e-05, momentum=0.1, affine=True, track_running_stats=True)
        (17): ReLU(inplace=True)
        (18): Conv2d(64, 64, kernel_size=(3, 3), stride=(1, 1), padding=(2, 2), dilation=(2, 2))
        (19): SyncBatchNorm(64, eps=1e-05, momentum=0.1, affine=True, track_running_stats=True)
        (20): ReLU(inplace=True)
      )
      (output_layer): Conv2d(64, 1, kernel_size=(1, 1), stride=(1, 1))
    )
    (feature_pooling): MSVoxAttnPooling(
      (transfer_conv): ModuleList(
        (0): Sequential(
          (0): Conv2d(256, 64, kernel_size=(1, 1), stride=(1, 1))
        )
        (1): Sequential(
          (0): Conv2d(256, 128, kernel_size=(1, 1), stride=(1, 1))
        )
        (2): Sequential(
          (0): Conv2d(256, 192, kernel_size=(1, 1), stride=(1, 1))
        )
        (3): Sequential(
          (0): Conv2d(256, 256, kernel_size=(1, 1), stride=(1, 1))
        )
      )
      (vox_layers): ModuleList(
        (0): VOXAttnPooling(
          (dynamic_cam_embed_fn): CamEmbedding(
            (bn): SyncBatchNorm(30, eps=1e-05, momentum=0.1, affine=True, track_running_stats=True)
            (mlp): MLP(
              (0): Linear(in_features=33, out_features=64, bias=True)
              (1): SyncBatchNorm(64, eps=1e-05, momentum=0.1, affine=True, track_running_stats=True)
              (2): ReLU(inplace=True)
              (3): Dropout(p=0.0, inplace=True)
              (4): Linear(in_features=64, out_features=128, bias=True)
              (5): SyncBatchNorm(128, eps=1e-05, momentum=0.1, affine=True, track_running_stats=True)
              (6): ReLU(inplace=True)
              (7): Dropout(p=0.0, inplace=True)
              (8): Linear(in_features=128, out_features=64, bias=True)
              (9): SyncBatchNorm(64, eps=1e-05, momentum=0.1, affine=True, track_running_stats=True)
              (10): ReLU(inplace=True)
              (11): Dropout(p=0.0, inplace=True)
              (12): Linear(in_features=64, out_features=64, bias=True)
              (13): Dropout(p=0.0, inplace=True)
            )
          )
          (layers): ModuleList(
            (0-2): 3 x VOXCrossViewLayer(
              (attentions): ModuleList(
                (0): SpatialCrossAttention(
                  (dropout): Dropout(p=0.1, inplace=False)
                  (deformable_attention): MSDeformableAttention3D(
                    (sampling_offsets): Linear(in_features=64, out_features=64, bias=True)
                    (attention_weights): Linear(in_features=64, out_features=32, bias=True)
                    (value_proj): Linear(in_features=64, out_features=64, bias=True)
                  )
                  (output_proj): Linear(in_features=64, out_features=64, bias=True)
                )
              )
              (ffns): ModuleList(
                (0): FFN(
                  (activate): ReLU(inplace=True)
                  (layers): Sequential(
                    (0): Sequential(
                      (0): Linear(in_features=64, out_features=128, bias=True)
                      (1): ReLU(inplace=True)
                      (2): Dropout(p=0.1, inplace=False)
                    )
                    (1): Linear(in_features=128, out_features=64, bias=True)
                    (2): Dropout(p=0.1, inplace=False)
                  )
                  (dropout_layer): Identity()
                )
              )
              (norms): ModuleList(
                (0-1): 2 x LayerNorm((64,), eps=1e-05, elementwise_affine=True)
              )
              (deblock): ModuleList(
                (0): Sequential(
                  (0): Conv3d(64, 64, kernel_size=(3, 3, 3), stride=(1, 1, 1), padding=(1, 1, 1), bias=False)
                  (1): GroupNorm(16, 64, eps=1e-05, affine=True)
                  (2): ReLU(inplace=True)
                )
              )
            )
          )
        )
        (1): VOXAttnPooling(
          (dynamic_cam_embed_fn): CamEmbedding(
            (bn): SyncBatchNorm(30, eps=1e-05, momentum=0.1, affine=True, track_running_stats=True)
            (mlp): MLP(
              (0): Linear(in_features=33, out_features=128, bias=True)
              (1): SyncBatchNorm(128, eps=1e-05, momentum=0.1, affine=True, track_running_stats=True)
              (2): ReLU(inplace=True)
              (3): Dropout(p=0.0, inplace=True)
              (4): Linear(in_features=128, out_features=256, bias=True)
              (5): SyncBatchNorm(256, eps=1e-05, momentum=0.1, affine=True, track_running_stats=True)
              (6): ReLU(inplace=True)
              (7): Dropout(p=0.0, inplace=True)
              (8): Linear(in_features=256, out_features=128, bias=True)
              (9): SyncBatchNorm(128, eps=1e-05, momentum=0.1, affine=True, track_running_stats=True)
              (10): ReLU(inplace=True)
              (11): Dropout(p=0.0, inplace=True)
              (12): Linear(in_features=128, out_features=128, bias=True)
              (13): Dropout(p=0.0, inplace=True)
            )
          )
          (layers): ModuleList(
            (0-4): 5 x VOXCrossViewLayer(
              (attentions): ModuleList(
                (0): SpatialCrossAttention(
                  (dropout): Dropout(p=0.1, inplace=False)
                  (deformable_attention): MSDeformableAttention3D(
                    (sampling_offsets): Linear(in_features=128, out_features=128, bias=True)
                    (attention_weights): Linear(in_features=128, out_features=64, bias=True)
                    (value_proj): Linear(in_features=128, out_features=128, bias=True)
                  )
                  (output_proj): Linear(in_features=128, out_features=128, bias=True)
                )
              )
              (ffns): ModuleList(
                (0): FFN(
                  (activate): ReLU(inplace=True)
                  (layers): Sequential(
                    (0): Sequential(
                      (0): Linear(in_features=128, out_features=256, bias=True)
                      (1): ReLU(inplace=True)
                      (2): Dropout(p=0.1, inplace=False)
                    )
                    (1): Linear(in_features=256, out_features=128, bias=True)
                    (2): Dropout(p=0.1, inplace=False)
                  )
                  (dropout_layer): Identity()
                )
              )
              (norms): ModuleList(
                (0-1): 2 x LayerNorm((128,), eps=1e-05, elementwise_affine=True)
              )
              (deblock): ModuleList(
                (0): Sequential(
                  (0): Conv3d(128, 128, kernel_size=(3, 3, 3), stride=(1, 1, 1), padding=(1, 1, 1), bias=False)
                  (1): GroupNorm(16, 128, eps=1e-05, affine=True)
                  (2): ReLU(inplace=True)
                )
              )
            )
          )
        )
        (2): VOXAttnPooling(
          (dynamic_cam_embed_fn): CamEmbedding(
            (bn): SyncBatchNorm(30, eps=1e-05, momentum=0.1, affine=True, track_running_stats=True)
            (mlp): MLP(
              (0): Linear(in_features=33, out_features=192, bias=True)
              (1): SyncBatchNorm(192, eps=1e-05, momentum=0.1, affine=True, track_running_stats=True)
              (2): ReLU(inplace=True)
              (3): Dropout(p=0.0, inplace=True)
              (4): Linear(in_features=192, out_features=384, bias=True)
              (5): SyncBatchNorm(384, eps=1e-05, momentum=0.1, affine=True, track_running_stats=True)
              (6): ReLU(inplace=True)
              (7): Dropout(p=0.0, inplace=True)
              (8): Linear(in_features=384, out_features=192, bias=True)
              (9): SyncBatchNorm(192, eps=1e-05, momentum=0.1, affine=True, track_running_stats=True)
              (10): ReLU(inplace=True)
              (11): Dropout(p=0.0, inplace=True)
              (12): Linear(in_features=192, out_features=192, bias=True)
              (13): Dropout(p=0.0, inplace=True)
            )
          )
          (layers): ModuleList(
            (0-6): 7 x VOXCrossViewLayer(
              (attentions): ModuleList(
                (0): SpatialCrossAttention(
                  (dropout): Dropout(p=0.1, inplace=False)
                  (deformable_attention): MSDeformableAttention3D(
                    (sampling_offsets): Linear(in_features=192, out_features=192, bias=True)
                    (attention_weights): Linear(in_features=192, out_features=96, bias=True)
                    (value_proj): Linear(in_features=192, out_features=192, bias=True)
                  )
                  (output_proj): Linear(in_features=192, out_features=192, bias=True)
                )
              )
              (ffns): ModuleList(
                (0): FFN(
                  (activate): ReLU(inplace=True)
                  (layers): Sequential(
                    (0): Sequential(
                      (0): Linear(in_features=192, out_features=384, bias=True)
                      (1): ReLU(inplace=True)
                      (2): Dropout(p=0.1, inplace=False)
                    )
                    (1): Linear(in_features=384, out_features=192, bias=True)
                    (2): Dropout(p=0.1, inplace=False)
                  )
                  (dropout_layer): Identity()
                )
              )
              (norms): ModuleList(
                (0-1): 2 x LayerNorm((192,), eps=1e-05, elementwise_affine=True)
              )
              (deblock): ModuleList(
                (0): Sequential(
                  (0): Conv3d(192, 192, kernel_size=(3, 3, 3), stride=(1, 1, 1), padding=(1, 1, 1), bias=False)
                  (1): GroupNorm(16, 192, eps=1e-05, affine=True)
                  (2): ReLU(inplace=True)
                )
              )
            )
          )
        )
        (3): VOXAttnPooling(
          (dynamic_cam_embed_fn): CamEmbedding(
            (bn): SyncBatchNorm(30, eps=1e-05, momentum=0.1, affine=True, track_running_stats=True)
            (mlp): MLP(
              (0): Linear(in_features=33, out_features=256, bias=True)
              (1): SyncBatchNorm(256, eps=1e-05, momentum=0.1, affine=True, track_running_stats=True)
              (2): ReLU(inplace=True)
              (3): Dropout(p=0.0, inplace=True)
              (4): Linear(in_features=256, out_features=512, bias=True)
              (5): SyncBatchNorm(512, eps=1e-05, momentum=0.1, affine=True, track_running_stats=True)
              (6): ReLU(inplace=True)
              (7): Dropout(p=0.0, inplace=True)
              (8): Linear(in_features=512, out_features=256, bias=True)
              (9): SyncBatchNorm(256, eps=1e-05, momentum=0.1, affine=True, track_running_stats=True)
              (10): ReLU(inplace=True)
              (11): Dropout(p=0.0, inplace=True)
              (12): Linear(in_features=256, out_features=256, bias=True)
              (13): Dropout(p=0.0, inplace=True)
            )
          )
          (layers): ModuleList(
            (0-8): 9 x VOXCrossViewLayer(
              (attentions): ModuleList(
                (0): SpatialCrossAttention(
                  (dropout): Dropout(p=0.1, inplace=False)
                  (deformable_attention): MSDeformableAttention3D(
                    (sampling_offsets): Linear(in_features=256, out_features=256, bias=True)
                    (attention_weights): Linear(in_features=256, out_features=128, bias=True)
                    (value_proj): Linear(in_features=256, out_features=256, bias=True)
                  )
                  (output_proj): Linear(in_features=256, out_features=256, bias=True)
                )
              )
              (ffns): ModuleList(
                (0): FFN(
                  (activate): ReLU(inplace=True)
                  (layers): Sequential(
                    (0): Sequential(
                      (0): Linear(in_features=256, out_features=512, bias=True)
                      (1): ReLU(inplace=True)
                      (2): Dropout(p=0.1, inplace=False)
                    )
                    (1): Linear(in_features=512, out_features=256, bias=True)
                    (2): Dropout(p=0.1, inplace=False)
                  )
                  (dropout_layer): Identity()
                )
              )
              (norms): ModuleList(
                (0-1): 2 x LayerNorm((256,), eps=1e-05, elementwise_affine=True)
              )
              (deblock): ModuleList(
                (0): Sequential(
                  (0): Conv3d(256, 256, kernel_size=(3, 3, 3), stride=(1, 1, 1), padding=(1, 1, 1), bias=False)
                  (1): GroupNorm(16, 256, eps=1e-05, affine=True)
                  (2): ReLU(inplace=True)
                )
              )
            )
          )
        )
      )
    )
    (vox_feature_fusion): SimpleFPN3d(
      (deblocks): ModuleList(
        (0-1): 2 x Sequential(
          (0): Conv3d(256, 256, kernel_size=(3, 3, 3), stride=(1, 1, 1), padding=(1, 1, 1), bias=False)
          (1): GroupNorm(16, 256, eps=1e-05, affine=True)
          (2): ReLU(inplace=True)
        )
        (2): Sequential(
          (0): Sequential(
            (0): Upsample(scale_factor=2.0, mode='trilinear')
            (1): Conv3d(256, 192, kernel_size=(3, 3, 3), stride=(1, 1, 1), padding=(1, 1, 1), bias=False)
          )
          (1): GroupNorm(16, 192, eps=1e-05, affine=True)
          (2): ReLU(inplace=True)
        )
        (3): Sequential(
          (0): Conv3d(192, 128, kernel_size=(3, 3, 3), stride=(1, 1, 1), padding=(1, 1, 1), bias=False)
          (1): GroupNorm(16, 128, eps=1e-05, affine=True)
          (2): ReLU(inplace=True)
        )
        (4): Sequential(
          (0): Conv3d(128, 128, kernel_size=(3, 3, 3), stride=(1, 1, 1), padding=(1, 1, 1), bias=False)
          (1): GroupNorm(16, 128, eps=1e-05, affine=True)
          (2): ReLU(inplace=True)
        )
        (5): Sequential(
          (0): Sequential(
            (0): Upsample(scale_factor=2.0, mode='trilinear')
            (1): Conv3d(128, 128, kernel_size=(3, 3, 3), stride=(1, 1, 1), padding=(1, 1, 1), bias=False)
          )
          (1): GroupNorm(16, 128, eps=1e-05, affine=True)
          (2): ReLU(inplace=True)
        )
        (6): Sequential(
          (0): Conv3d(128, 64, kernel_size=(3, 3, 3), stride=(1, 1, 1), padding=(1, 1, 1), bias=False)
          (1): GroupNorm(16, 64, eps=1e-05, affine=True)
          (2): ReLU(inplace=True)
        )
        (7): Sequential(
          (0): Conv3d(64, 64, kernel_size=(3, 3, 3), stride=(1, 1, 1), padding=(1, 1, 1), bias=False)
          (1): GroupNorm(16, 64, eps=1e-05, affine=True)
          (2): ReLU(inplace=True)
        )
        (8): Sequential(
          (0): Sequential(
            (0): Upsample(scale_factor=2.0, mode='trilinear')
            (1): Conv3d(64, 64, kernel_size=(3, 3, 3), stride=(1, 1, 1), padding=(1, 1, 1), bias=False)
          )
          (1): GroupNorm(16, 64, eps=1e-05, affine=True)
          (2): ReLU(inplace=True)
        )
        (9): Sequential(
          (0): Conv3d(64, 32, kernel_size=(3, 3, 3), stride=(1, 1, 1), padding=(1, 1, 1), bias=False)
          (1): GroupNorm(16, 32, eps=1e-05, affine=True)
          (2): ReLU(inplace=True)
        )
        (10): Sequential(
          (0): Sequential(
            (0): Upsample(scale_factor=2.0, mode='trilinear')
            (1): Conv3d(32, 16, kernel_size=(3, 3, 3), stride=(1, 1, 1), padding=(1, 1, 1), bias=False)
          )
          (1): GroupNorm(16, 16, eps=1e-05, affine=True)
          (2): ReLU(inplace=True)
        )
        (11): Sequential(
          (0): Conv3d(16, 16, kernel_size=(3, 3, 3), stride=(1, 1, 1), padding=(1, 1, 1), bias=False)
          (1): GroupNorm(16, 16, eps=1e-05, affine=True)
          (2): ReLU(inplace=True)
        )
      )
    )
    (counter): ModuleList(
      (0): Sequential(
        (0): Conv3d(192, 32, kernel_size=(3, 3, 3), stride=(1, 1, 1), padding=(1, 1, 1), bias=False)
        (1): GroupNorm(16, 32, eps=1e-05, affine=True)
        (2): ReLU(inplace=True)
        (3): Conv3d(32, 16, kernel_size=(3, 3, 3), stride=(1, 1, 1), padding=(1, 1, 1), bias=False)
        (4): GroupNorm(16, 16, eps=1e-05, affine=True)
        (5): ReLU(inplace=True)
        (6): Conv3d(16, 16, kernel_size=(3, 3, 3), stride=(1, 1, 1), padding=(1, 1, 1), bias=False)
        (7): GroupNorm(16, 16, eps=1e-05, affine=True)
        (8): ReLU(inplace=True)
        (9): Conv3d(16, 1, kernel_size=(3, 3, 3), stride=(1, 1, 1), padding=(1, 1, 1))
      )
      (1): Sequential(
        (0): Conv3d(128, 32, kernel_size=(3, 3, 3), stride=(1, 1, 1), padding=(1, 1, 1), bias=False)
        (1): GroupNorm(16, 32, eps=1e-05, affine=True)
        (2): ReLU(inplace=True)
        (3): Conv3d(32, 16, kernel_size=(3, 3, 3), stride=(1, 1, 1), padding=(1, 1, 1), bias=False)
        (4): GroupNorm(16, 16, eps=1e-05, affine=True)
        (5): ReLU(inplace=True)
        (6): Conv3d(16, 16, kernel_size=(3, 3, 3), stride=(1, 1, 1), padding=(1, 1, 1), bias=False)
        (7): GroupNorm(16, 16, eps=1e-05, affine=True)
        (8): ReLU(inplace=True)
        (9): Conv3d(16, 1, kernel_size=(3, 3, 3), stride=(1, 1, 1), padding=(1, 1, 1))
      )
      (2): Sequential(
        (0): Conv3d(64, 32, kernel_size=(3, 3, 3), stride=(1, 1, 1), padding=(1, 1, 1), bias=False)
        (1): GroupNorm(16, 32, eps=1e-05, affine=True)
        (2): ReLU(inplace=True)
        (3): Conv3d(32, 16, kernel_size=(3, 3, 3), stride=(1, 1, 1), padding=(1, 1, 1), bias=False)
        (4): GroupNorm(16, 16, eps=1e-05, affine=True)
        (5): ReLU(inplace=True)
        (6): Conv3d(16, 16, kernel_size=(3, 3, 3), stride=(1, 1, 1), padding=(1, 1, 1), bias=False)
        (7): GroupNorm(16, 16, eps=1e-05, affine=True)
        (8): ReLU(inplace=True)
        (9): Conv3d(16, 1, kernel_size=(3, 3, 3), stride=(1, 1, 1), padding=(1, 1, 1))
      )
      (3): Sequential(
        (0): Conv3d(16, 32, kernel_size=(3, 3, 3), stride=(1, 1, 1), padding=(1, 1, 1), bias=False)
        (1): GroupNorm(16, 32, eps=1e-05, affine=True)
        (2): ReLU(inplace=True)
        (3): Conv3d(32, 16, kernel_size=(3, 3, 3), stride=(1, 1, 1), padding=(1, 1, 1), bias=False)
        (4): GroupNorm(16, 16, eps=1e-05, affine=True)
        (5): ReLU(inplace=True)
        (6): Conv3d(16, 16, kernel_size=(3, 3, 3), stride=(1, 1, 1), padding=(1, 1, 1), bias=False)
        (7): GroupNorm(16, 16, eps=1e-05, affine=True)
        (8): ReLU(inplace=True)
        (9): Conv3d(16, 1, kernel_size=(3, 3, 3), stride=(1, 1, 1), padding=(1, 1, 1))
      )
    )
    (img_density_loss_fn): MSELoss()
    (vox_density_loss_fn): SmoothL1Loss()
  )
)
[2025-02-11 02:00:58] AdamW (
Parameter Group 0
    _lr: 0.0004
    amsgrad: False
    betas: (0.9, 0.999)
    capturable: False
    differentiable: False
    eps: 1e-08
    foreach: None
    fused: None
    lr: 0.0004
    maximize: False
…
